…
\n","cnn_learn = cnn_learner(image_data_db, cnn_arch, ps=0.2)\n","cnn_model = cnn_learn.model"]},{"cell_type":"code","execution_count":null,"metadata":{"colab":{"base_uri":"https://localhost:8080/"},"executionInfo":{"elapsed":21,"status":"ok","timestamp":1639472807946,"user":{"displayName":"demore demore","photoUrl":"https://lh3.googleusercontent.com/a/default-user=s64","userId":"16558528897465647936"},"user_tz":-540},"id":"sHELiIlpUMBP","outputId":"3d540d76-5605-4e20-a990-931f0f7a57bb"},"outputs":[{"data":{"text/plain":["Sequential(\n","  (0): Sequential(\n","    (0): Sequential(\n","      (0): Conv2d(3, 64, kernel_size=(3, 3), stride=(1, 1), padding=(1, 1))\n","      (1): BatchNorm2d(64, eps=1e-05, momentum=0.1, affine=True, track_running_stats=True)\n","      (2): ReLU(inplace=True)\n","      (3): Conv2d(64, 64, kernel_size=(3, 3), stride=(1, 1), padding=(1, 1))\n","      (4): BatchNorm2d(64, eps=1e-05, momentum=0.1, affine=True, track_running_stats=True)\n","      (5): ReLU(inplace=True)\n","      (6): MaxPool2d(kernel_size=2, stride=2, padding=0, dilation=1, ceil_mode=False)\n","      (7): Conv2d(64, 128, kernel_size=(3, 3), stride=(1, 1), padding=(1, 1))\n","      (8): BatchNorm2d(128, eps=1e-05, momentum=0.1, affine=True, track_running_stats=True)\n","      (9): ReLU(inplace=True)\n","      (10): Conv2d(128, 128, kernel_size=(3, 3), stride=(1, 1), padding=(1, 1))\n","      (11): BatchNorm2d(128, eps=1e-05, momentum=0.1, affine=True, track_running_stats=True)\n","      (12): ReLU(inplace=True)\n","      (13): MaxPool2d(kernel_size=2, stride=2, padding=0, dilation=1, ceil_mode=False)\n","      (14): Conv2d(128, 256, kernel_size=(3, 3), stride=(1, 1), padding=(1, 1))\n","      (15): BatchNorm2d(256, eps=1e-05, momentum=0.1, affine=True, track_running_stats=True)\n","      (16): ReLU(inplace=True)\n","      (17): Conv2d(256, 256, kernel_size=(3, 3), stride=(1, 1), padding=(1, 1))\n","      (18): BatchNorm2d(256, eps=1e-05, momentum=0.1, affine=True, track_running_stats=True)\n","      (19): ReLU(inplace=True)\n","      (20): Conv2d(256, 256, kernel_size=(3, 3), stride=(1, 1), padding=(1, 1))\n","      (21): BatchNorm2d(256, eps=1e-05, momentum=0.1, affine=True, track_running_stats=True)\n","      (22): ReLU(inplace=True)\n","      (23): MaxPool2d(kernel_size=2, stride=2, padding=0, dilation=1, ceil_mode=False)\n","      (24): Conv2d(256, 512, kernel_size=(3, 3), stride=(1, 1), padding=(1, 1))\n","      (25): BatchNorm2d(512, eps=1e-05, momentum=0.1, affine=True, track_running_stats=True)\n","      (26): ReLU(inplace=True)\n","      (27): Conv2d(512, 512, kernel_size=(3, 3), stride=(1, 1), padding=(1, 1))\n","      (28): BatchNorm2d(512, eps=1e-05, momentum=0.1, affine=True, track_running_stats=True)\n","      (29): ReLU(inplace=True)\n","      (30): Conv2d(512, 512, kernel_size=(3, 3), stride=(1, 1), padding=(1, 1))\n","      (31): BatchNorm2d(512, eps=1e-05, momentum=0.1, affine=True, track_running_stats=True)\n","      (32): ReLU(inplace=True)\n","      (33): MaxPool2d(kernel_size=2, stride=2, padding=0, dilation=1, ceil_mode=False)\n","      (34): Conv2d(512, 512, kernel_size=(3, 3), stride=(1, 1), padding=(1, 1))\n","      (35): BatchNorm2d(512, eps=1e-05, momentum=0.1, affine=True, track_running_stats=True)\n","      (36): ReLU(inplace=True)\n","      (37): Conv2d(512, 512, kernel_size=(3, 3), stride=(1, 1), padding=(1, 1))\n","      (38): BatchNorm2d(512, eps=1e-05, momentum=0.1, affine=True, track_running_stats=True)\n","      (39): ReLU(inplace=True)\n","      (40): Conv2d(512, 512, kernel_size=(3, 3), stride=(1, 1), padding=(1, 1))\n","      (41): BatchNorm2d(512, eps=1e-05, momentum=0.1, affine=True, track_running_stats=True)\n","      (42): ReLU(inplace=True)\n","      (43): MaxPool2d(kernel_size=2, stride=2, padding=0, dilation=1, ceil_mode=False)\n","    )\n","    (1): AdaptiveAvgPool2d(output_size=(7, 7))\n","  )\n","  (1): Sequential(\n","    (0): AdaptiveConcatPool2d(\n","      (ap): AdaptiveAvgPool2d(output_size=1)\n","      (mp): AdaptiveMaxPool2d(output_size=1)\n","    )\n","    (1): Flatten()\n","    (2): BatchNorm1d(1024, eps=1e-05, momentum=0.1, affine=True, track_running_stats=True)\n","    (3): Dropout(p=0.1, inplace=False)\n","    (4): Linear(in_features=1024, out_features=512, bias=True)\n","    (5): ReLU(inplace=True)\n","    (6): BatchNorm1d(512, eps=1e-05, momentum=0.1, affine=True, track_running_stats=True)\n","    (7): Dropout(p=0.2, inplace=False)\n","    (8): Linear(in_features=512, out_features=256, bias=True)\n","  )\n",")"]},"execution_count":27,"metadata":{},"output_type":"execute_result"}],"source":["cnn_model"]},{"cell_type":"markdown","metadata":{"id":"-Wiex9KEi8K8"},"source":["## Tabular ann\n"]},{"cell_type":"code","execution_count":27,"metadata":{"colab":{"base_uri":"https://localhost:8080/"},"executionInfo":{"elapsed":11,"status":"ok","timestamp":1639959958500,"user":{"displayName":"demore demore","photoUrl":"https://lh3.googleusercontent.com/a/default-user=s64","userId":"16558528897465647936"},"user_tz":-540},"id":"j9n0df--QK_I","outputId":"daaa993f-4f00-4317-de8e-3ca667a6ab88"},"outputs":[{"output_type":"execute_result","data":{"text/plain":["TabularModel(\n","  (embeds): ModuleList(\n","    (0): Embedding(3, 3)\n","    (1): Embedding(3, 3)\n","  )\n","  (emb_drop): Dropout(p=0.0, inplace=False)\n","  (bn_cont): BatchNorm1d(1, eps=1e-05, momentum=0.1, affine=True, track_running_stats=True)\n","  (layers): Sequential(\n","    (0): Linear(in_features=7, out_features=8, bias=True)\n","    (1): ReLU(inplace=True)\n","    (2): BatchNorm1d(8, eps=1e-05, momentum=0.1, affine=True, track_running_stats=True)\n","    (3): Dropout(p=0.2, inplace=False)\n","    (4): Linear(in_features=8, out_features=8, bias=True)\n","  )\n",")"]},"metadata":{},"execution_count":27}],"source":["# get embedding sizes of categorical data\n","emb_szs = tab_data.train.get_emb_szs()\n","\n","# output size of the tabular model that will be concatenated with cnn model output\n","tab_out_sz = 8\n","\n","# use fastai functions to get a tabular model\n","tabular_model = TabularModel(emb_szs, 
…
